…
snapshot: 0
snapshot_prefix: "vgg16_faster_rcnn"
average_loss: 100
iter_size: 2
I0616 02:05:48.575085  9857 solver.cpp:86] Creating training net from train_net file: models/VGG16/faster_rcnn_end2end/train.prototxt
I0616 02:05:48.575848  9857 net.cpp:50] Initializing net from parameters: 
name: "VGG_ILSVRC_16_layers"
state {
  phase: TRAIN
}
layer {
  name: "input-data"
  type: "Python"
  top: "data"
  top: "im_info"
  top: "gt_boxes"
  python_param {
    module: "roi_data_layer.layer"
    layer: "RoIDataLayer"
    param_str: "\'num_classes\': 201"
  }
}
layer {
  name: "conv1_1"
  type: "Convolution"
  bottom: "data"
  top: "conv1_1"
  param {
    lr_mult: 0
    decay_mult: 0
  }
  param {
    lr_mult: 0
    decay_mult: 0
  }
  convolution_param {
    num_output: 64
    pad: 1
    kernel_size: 3
  }
}
layer {
  name: "relu1_1"
  type: "ReLU"
  bottom: "conv1_1"
  top: "conv1_1"
}
layer {
  name: "conv1_2"
  type: "Convolution"
  bottom: "conv1_1"
  top: "conv1_2"
  param {
    lr_mult: 0
    decay_mult: 0
  }
  param {
    lr_mult: 0
    decay_mult: 0
  }
  convolution_param {
    num_output: 64
    pad: 1
    kernel_size: 3
  }
}
layer {
  name: "relu1_2"
  type: "ReLU"
  bottom: "conv1_2"
  top: "conv1_2"
}
layer {
  name: "pool1"
  type: "Pooling"
  bottom: "conv1_2"
  top: "pool1"
  pooling_param {
    pool: MAX
    kernel_size: 2
    stride: 2
  }
}
layer {
  name: "conv2_1"
  type: "Convolution"
  bottom: "pool1"
  top: "conv2_1"
  param {
    lr_mult: 0
    decay_mult: 0
  }
  param {
    lr_mult: 0
    decay_mult: 0
  }
  convolution_param {
    num_output: 128
    pad: 1
    kernel_size: 3
  }
}
layer {
  name: "relu2_1"
  type: "ReLU"
  bottom: "conv2_1"
  top: "conv2_1"
}
layer {
  name: "conv2_2"
  type: "Convolution"
  bottom: "conv2_1"
  top: "conv2_2"
  param {
    lr_mult: 0
    decay_mult: 0
  }
  param {
    lr_mult: 0
    decay_mult: 0
  }
  convolution_param {
    num_output: 128
    pad: 1
    kernel_size: 3
  }
}
layer {
  name: "relu2_2"
  type: "ReLU"
  bottom: "conv2_2"
  top: "conv2_2"
}
layer {
  name: "pool2"
  type: "Pooling"
  bottom: "conv2_2"
  top: "pool2"
  pooling_param {
    pool: MAX
    kernel_size: 2
    stride: 2
  }
}
layer {
  name: "conv3_1"
  type: "Convolution"
  bottom: "pool2"
  top: "conv3_1"
  param {
    lr_mult: 1
  }
  param {
    lr_mult: 2
  }
  convolution_param {
    num_output: 256
    pad: 1
    kernel_size: 3
  }
}
layer {
  name: "relu3_1"
  type: "ReLU"
  bottom: "conv3_1"
  top: "conv3_1"
}
layer {
  name: "conv3_2"
  type: "Convolution"
  bottom: "conv3_1"
  top: "conv3_2"
  param {
    lr_mult: 1
  }
  param {
    lr_mult: 2
  }
  convolution_param {
    num_output: 256
    pad: 1
    kernel_size: 3
  }
}
layer {
  name: "relu3_2"
  type: "ReLU"
  bottom: "conv3_2"
  top: "conv3_2"
}
layer {
  name: "conv3_3"
  type: "Convolution"
  bottom: "conv3_2"
  top: "conv3_3"
  param {
    lr_mult: 1
  }
  param {
    lr_mult: 2
  }
  convolution_param {
    num_output: 256
    pad: 1
    kernel_size: 3
  }
}
layer {
  name: "relu3_3"
  type: "ReLU"
  bottom: "conv3_3"
  top: "conv3_3"
}
layer {
  name: "pool3"
  type: "Pooling"
  bottom: "conv3_3"
  top: "pool3"
  pooling_param {
    pool: MAX
    kernel_size: 2
    stride: 2
  }
}
layer {
  name: "conv4_1"
  type: "Convolution"
  bottom: "pool3"
  top: "conv4_1"
  param {
    lr_mult: 1
  }
  param {
    lr_mult: 2
  }
  convolution_param {
    num_output: 512
    pad: 1
    kernel_size: 3
  }
}
layer {
  name: "relu4_1"
  type: "ReLU"
  bottom: "conv4_1"
  top: "conv4_1"
}
layer {
  name: "conv4_2"
  type: "Convolution"
  bottom: "conv4_1"
  top: "conv4_2"
  param {
    lr_mult: 1
  }
  param {
    lr_mult: 2
  }
  convolution_param {
    num_output: 512
    pad: 1
    kernel_size: 3
  }
}
layer {
  name: "relu4_2"
  type: "ReLU"
  bottom: "conv4_2"
  top: "conv4_2"
}
layer {
  name: "conv4_3"
  type: "Convolution"
  bottom: "conv4_2"
  top: "conv4_3"
  param {
    lr_mult: 1
  }
  param {
    lr_mult: 2
  }
  convolution_param {
    num_output: 512
    pad: 1
    kernel_size: 3
  }
}
layer {
  name: "relu4_3"
  type: "ReLU"
  bottom: "conv4_3"
  top: "conv4_3"
}
layer {
  name: "pool4"
  type: "Pooling"
  bottom: "conv4_3"
  top: "pool4"
  pooling_param {
    pool: MAX
    kernel_size: 2
    stride: 2
  }
}
layer {
  name: "conv5_1"
  type: "Convolution"
  bottom: "pool4"
  top: "conv5_1"
  param {
    lr_mult: 1
  }
  param {
    lr_mult: 2
  }
  convolution_param {
    num_output: 512
    pad: 1
    kernel_size: 3
  }
}
layer {
  name: "relu5_1"
  type: "ReLU"
  bottom: "conv5_1"
  top: "conv5_1"
}
layer {
  name: "conv5_2"
  type: "Convolution"
  bottom: "conv5_1"
  top: "conv5_2"
  param {
    lr_mult: 1
  }
  param {
    lr_mult: 2
  }
  convolution_param {
    num_output: 512
    pad: 1
    kernel_size: 3
  }
}
layer {
  name: "relu5_2"
  type: "ReLU"
  bottom: "conv5_2"
  top: "conv5_2"
}
layer {
  name: "conv5_3"
  type: "Convolution"
  bottom: "conv5_2"
  top: "conv5_3"
  param {
    lr_mult: 1
  }
  param {
    lr_mult: 2
  }
  convolution_param {
    num_output: 512
    pad: 1
    kernel_size: 3
  }
}
layer {
  name: "relu5_3"
  type: "ReLU"
  bottom: "conv5_3"
  top: "conv5_3"
}
layer {
  name: "rpn_conv/3x3"
  type: "Convolution"
  bottom: "conv5_3"
  top: "rpn/output"
  param {
    lr_mult: 1
  }
  param {
    lr_mult: 2
  }
  convolution_param {
    num_output: 512
    pad: 1
    kernel_size: 3
    stride: 1
    weight_filler {
      type: "gaussian"
      std: 0.01
    }
    bias_filler {
      type: "constant"
      value: 0
    }
  }
}
layer {
  name: "rpn_relu/3x3"
  type: "ReLU"
  bottom: "rpn/output"
  top: "rpn/output"
}
layer {
  name: "rpn_cls_score"
  type: "Convolution"
  bottom: "rpn/output"
  top: "rpn_cls_score"
  param {
    lr_mult: 1
  }
  param {
    lr_mult: 2
  }
  convolution_param {
    num_output: 18
    pad: 0
    kernel_size: 1
    stride: 1
    weight_filler {
      type: "gaussian"
      std: 0.01
    }
    bias_filler {
      type: "constant"
      value: 0
    }
  }
}
layer {
  name: "rpn_bbox_pred"
  type: "Convolution"
  bottom: "rpn/output"
  top: "rpn_bbox_pred"
  param {
    lr_mult: 1
  }
  param {
    lr_mult: 2
  }
  convolution_param {
    num_output: 36
    pad: 0
    kernel_size: 1
    stride: 1
    weight_filler {
      type: "gaussian"
      std: 0.01
    }
    bias_filler {
      type: "constant"
      value: 0
    }
  }
}
layer {
  name: "rpn_cls_score_reshape"
  type: "Reshape"
  bottom: "rpn_cls_score"
  top: "rpn_cls_score_reshape"
  reshape_param {
    shape {
      dim: 0
      dim: 2
      dim: -1
      dim: 0
    }
  }
}
layer {
  name: "rpn-data"
  type: "Python"
  bottom: "rpn_cls_score"
  bottom: "gt_boxes"
  bottom: "im_info"
  bottom: "data"
  top: "rpn_labels"
  top: "rpn_bbox_targets"
  top: "rpn_bbox_inside_weights"
  top: "rpn_bbox_outside_weights"
  python_param {
    module: "rpn.anchor_target_layer"
    layer: "AnchorTargetLayer"
    param_str: "\'feat_stride\': 16"
  }
}
layer {
  name: "rpn_loss_cls"
  type: "SoftmaxWithLoss"
  bottom: "rpn_cls_score_reshape"
  bottom: "rpn_labels"
  top: "rpn_cls_loss"
  loss_weight: 1
  propagate_down: true
  propagate_down: false
  loss_param {
    ignore_label: -1
    normalize: true
  }
}
layer {
  name: "rpn_loss_bbox"
  type: "SmoothL1Loss"
  bottom: "rpn_bbox_pred"
  bottom: "rpn_bbox_targets"
  bottom: "rpn_bbox_inside_weights"
  bottom: "rpn_bbox_outside_weights"
  top: "rpn_loss_bbox"
  loss_weight: 1
  smooth_l1_loss_param {
    sigma: 3
  }
}
layer {
  name: "rpn_cls_prob"
  type: "Softmax"
  bottom: "rpn_cls_score_reshape"
  top: "rpn_cls_prob"
}
layer {
  name: "rpn_cls_prob_reshape"
  type: "Reshape"
  bottom: "rpn_cls_prob"
  top: "rpn_cls_prob_reshape"
  reshape_param {
    shape {
      dim: 0
      dim: 18
      dim: -1
      dim: 0
    }
  }
}
layer {
  name: "proposal"
  type: "Python"
  bottom: "rpn_cls_prob_reshape"
  bottom: "rpn_bbox_pred"
  bottom: "im_info"
  top: "rpn_rois"
  python_param {
    module: "rpn.proposal_layer"
    layer: "ProposalLayer"
    param_str: "\'feat_stride\': 16"
  }
}
layer {
  name: "roi-data"
  type: "Python"
  bottom: "rpn_rois"
  bottom: "gt_boxes"
  top: "rois"
  top: "labels"
  top: "bbox_targets"
  top: "bbox_inside_weights"
  top: "bbox_outside_weights"
  python_param {
    module: "rpn.proposal_target_layer"
    layer: "ProposalTargetLayer"
    param_str: "\'num_classes\': 201"
  }
}
layer {
  name: "roi_pool5"
  type: "ROIPooling"
  bottom: "conv5_3"
  bottom: "rois"
  top: "pool5"
  roi_pooling_param {
    pooled_h: 7
    pooled_w: 7
    spatial_scale: 0.0625
  }
}
layer {
  name: "fc6"
  type: "InnerProduct"
  bottom: "pool5"
  top: "fc6"
  param {
    lr_mult: 1
  }
  param {
    lr_mult: 2
  }
  inner_product_param {
    num_output: 4096
  }
}
layer {
  name: "relu6"
  type: "ReLU"
  bottom: "fc6"
  top: "fc6"
}
layer {
  name: "drop6"
  type: "Dropout"
  bottom: "fc6"
  top: "fc6"
  dropout_param {
    dropout_ratio: 0.5
  }
}
layer {
  name: "fc7"
  type: "InnerProduct"
  bottom: "fc6"
  top: "fc7"
  param {
    lr_mult: 1
  }
  param {
    lr_mult: 2
  }
  inner_product_param {
    num_output: 4096
  }
}
layer {
  name: "relu7"
  type: "ReLU"
  bottom: "fc7"
  top: "fc7"
}
layer {
  name: "drop7"
  type: "Dropout"
  bottom: "fc7"
  top: "fc7"
  dropout_param {
    dropout_ratio: 0.5
  }
}
layer {
  name: "cls_score"
  type: "InnerProduct"
  bottom: "fc7"
  top: "cls_score"
  param {
    lr_mult: 1
  }
  param {
    lr_mult: 2
  }
  inner_product_param {
    num_output: 201
    weight_filler {
      type: "gaussian"
      std: 0.01
    }
    bias_filler {
      type: "constant"
      value: 0
    }
  }
}
layer {
  name: "bbox_pred"
  type: "InnerProduct"
  bottom: "fc7"
  top: "bbox_pred"
  param {
    lr_mult: 1
  }
  param {
    lr_mult: 2
  }
  inner_product_param {
    num_output: 804
    weight_filler {
      type: "gaussian"
      std: 0.001
    }
    bias_filler {
      type: "constant"
      value: 0
    }
  }
}
layer {
  name: "loss_cls"
  type: "SoftmaxWithLoss"
  bottom: "cls_score"
  bottom: "labels"
  top: "loss_cls"
  loss_weight: 1
  propagate_down: true
  propagate_down: false
}
layer {
  name: "loss_bbox"
  type: "SmoothL1Loss"
  bottom: "bbox_pred"
  bottom: "bbox_targets"
  bottom: "bbox_inside_weights"
  bottom: "bbox_outside_weights"
  top: "loss_bbox"
  loss_weight: 1
}
I0616 02:05:48.576035  9857 layer_factory.hpp:76] Creating layer input-data
I0616 02:05:48.598570  9857 net.cpp:110] Creating Layer input-data
I0616 02:05:48.598608  9857 net.cpp:433] input-data -> data
I0616 02:05:48.598614  9857 net.cpp:433] input-data -> im_info
I0616 02:05:48.598619  9857 net.cpp:433] input-data -> gt_boxes
RoiDataLayer: name_to_top: {'gt_boxes': 2, 'data': 0, 'im_info': 1}
I0616 02:05:48.599010  9857 net.cpp:155] Setting up input-data
I0616 02:05:48.599020  9857 net.cpp:163] Top shape: 1 3 600 1000 (1800000)
I0616 02:05:48.599035  9857 net.cpp:163] Top shape: 1 3 (3)
I0616 02:05:48.599037  9857 net.cpp:163] Top shape: 1 4 (4)
I0616 02:05:48.599041  9857 layer_factory.hpp:76] Creating layer data_input-data_0_split
I0616 02:05:48.599062  9857 net.cpp:110] Creating Layer data_input-data_0_split
I0616 02:05:48.599066  9857 net.cpp:477] data_input-data_0_split <- data
I0616 02:05:48.599069  9857 net.cpp:433] data_input-data_0_split -> data_input-data_0_split_0
I0616 02:05:48.599076  9857 net.cpp:433] data_input-data_0_split -> data_input-data_0_split_1
I0616 02:05:48.599082  9857 net.cpp:155] Setting up data_input-data_0_split
I0616 02:05:48.599086  9857 net.cpp:163] Top shape: 1 3 600 1000 (1800000)
I0616 02:05:48.599089  9857 net.cpp:163] Top shape: 1 3 600 1000 (1800000)
I0616 02:05:48.599092  9857 layer_factory.hpp:76] Creating layer im_info_input-data_1_split
I0616 02:05:48.599095  9857 net.cpp:110] Creating Layer im_info_input-data_1_split
I0616 02:05:48.599098  9857 net.cpp:477] im_info_input-data_1_split <- im_info
I0616 02:05:48.599102  9857 net.cpp:433] im_info_input-data_1_split -> im_info_input-data_1_split_0
I0616 02:05:48.599105  9857 net.cpp:433] im_info_input-data_1_split -> im_info_input-data_1_split_1
I0616 02:05:48.599108  9857 net.cpp:155] Setting up im_info_input-data_1_split
I0616 02:05:48.599112  9857 net.cpp:163] Top shape: 1 3 (3)
I0616 02:05:48.599114  9857 net.cpp:163] Top shape: 1 3 (3)
I0616 02:05:48.599117  9857 layer_factory.hpp:76] Creating layer gt_boxes_input-data_2_split
I0616 02:05:48.599119  9857 net.cpp:110] Creating Layer gt_boxes_input-data_2_split
I0616 02:05:48.599123  9857 net.cpp:477] gt_boxes_input-data_2_split <- gt_boxes
I0616 02:05:48.599125  9857 net.cpp:433] gt_boxes_input-data_2_split -> gt_boxes_input-data_2_split_0
I0616 02:05:48.599130  9857 net.cpp:433] gt_boxes_input-data_2_split -> gt_boxes_input-data_2_split_1
I0616 02:05:48.599134  9857 net.cpp:155] Setting up gt_boxes_input-data_2_split
I0616 02:05:48.599138  9857 net.cpp:163] Top shape: 1 4 (4)
I0616 02:05:48.599140  9857 net.cpp:163] Top shape: 1 4 (4)
I0616 02:05:48.599143  9857 layer_factory.hpp:76] Creating layer conv1_1
I0616 02:05:48.599148  9857 net.cpp:110] Creating Layer conv1_1
I0616 02:05:48.599150  9857 net.cpp:477] conv1_1 <- data_input-data_0_split_0
I0616 02:05:48.599154  9857 net.cpp:433] conv1_1 -> conv1_1
I0616 02:05:48.821652  9857 net.cpp:155] Setting up conv1_1
I0616 02:05:48.821693  9857 net.cpp:163] Top shape: 1 64 600 1000 (38400000)
I0616 02:05:48.821705  9857 layer_factory.hpp:76] Creating layer relu1_1
I0616 02:05:48.821714  9857 net.cpp:110] Creating Layer relu1_1
I0616 02:05:48.821717  9857 net.cpp:477] relu1_1 <- conv1_1
I0616 02:05:48.821722  9857 net.cpp:419] relu1_1 -> conv1_1 (in-place)
I0616 02:05:48.821734  9857 net.cpp:155] Setting up relu1_1
I0616 02:05:48.821738  9857 net.cpp:163] Top shape: 1 64 600 1000 (38400000)
I0616 02:05:48.821740  9857 layer_factory.hpp:76] Creating layer conv1_2
I0616 02:05:48.821745  9857 net.cpp:110] Creating Layer conv1_2
I0616 02:05:48.821748  9857 net.cpp:477] conv1_2 <- conv1_1
I0616 02:05:48.821751  9857 net.cpp:433] conv1_2 -> conv1_2
I0616 02:05:48.823266  9857 net.cpp:155] Setting up conv1_2
I0616 02:05:48.823289  9857 net.cpp:163] Top shape: 1 64 600 1000 (38400000)
I0616 02:05:48.823297  9857 layer_factory.hpp:76] Creating layer relu1_2
I0616 02:05:48.823302  9857 net.cpp:110] Creating Layer relu1_2
I0616 02:05:48.823303  9857 net.cpp:477] relu1_2 <- conv1_2
I0616 02:05:48.823308  9857 net.cpp:419] relu1_2 -> conv1_2 (in-place)
I0616 02:05:48.823313  9857 net.cpp:155] Setting up relu1_2
I0616 02:05:48.823318  9857 net.cpp:163] Top shape: 1 64 600 1000 (38400000)
I0616 02:05:48.823319  9857 layer_factory.hpp:76] Creating layer pool1
I0616 02:05:48.823324  9857 net.cpp:110] Creating Layer pool1
I0616 02:05:48.823328  9857 net.cpp:477] pool1 <- conv1_2
I0616 02:05:48.823330  9857 net.cpp:433] pool1 -> pool1
I0616 02:05:48.823339  9857 net.cpp:155] Setting up pool1
I0616 02:05:48.823343  9857 net.cpp:163] Top shape: 1 64 300 500 (9600000)
I0616 02:05:48.823345  9857 layer_factory.hpp:76] Creating layer conv2_1
I0616 02:05:48.823351  9857 net.cpp:110] Creating Layer conv2_1
I0616 02:05:48.823354  9857 net.cpp:477] conv2_1 <- pool1
I0616 02:05:48.823359  9857 net.cpp:433] conv2_1 -> conv2_1
I0616 02:05:48.824000  9857 net.cpp:155] Setting up conv2_1
I0616 02:05:48.824008  9857 net.cpp:163] Top shape: 1 128 300 500 (19200000)
I0616 02:05:48.824015  9857 layer_factory.hpp:76] Creating layer relu2_1
I0616 02:05:48.824020  9857 net.cpp:110] Creating Layer relu2_1
I0616 02:05:48.824023  9857 net.cpp:477] relu2_1 <- conv2_1
I0616 02:05:48.824026  9857 net.cpp:419] relu2_1 -> conv2_1 (in-place)
I0616 02:05:48.824031  9857 net.cpp:155] Setting up relu2_1
I0616 02:05:48.824034  9857 net.cpp:163] Top shape: 1 128 300 500 (19200000)
I0616 02:05:48.824038  9857 layer_factory.hpp:76] Creating layer conv2_2
I0616 02:05:48.824041  9857 net.cpp:110] Creating Layer conv2_2
I0616 02:05:48.824044  9857 net.cpp:477] conv2_2 <- conv2_1
I0616 02:05:48.824048  9857 net.cpp:433] conv2_2 -> conv2_2
I0616 02:05:48.825235  9857 net.cpp:155] Setting up conv2_2
I0616 02:05:48.825244  9857 net.cpp:163] Top shape: 1 128 300 500 (19200000)
I0616 02:05:48.825248  9857 layer_factory.hpp:76] Creating layer relu2_2
I0616 02:05:48.825253  9857 net.cpp:110] Creating Layer relu2_2
I0616 02:05:48.825256  9857 net.cpp:477] relu2_2 <- conv2_2
I0616 02:05:48.825259  9857 net.cpp:419] relu2_2 -> conv2_2 (in-place)
I0616 02:05:48.825263  9857 net.cpp:155] Setting up relu2_2
I0616 02:05:48.825266  9857 net.cpp:163] Top shape: 1 128 300 500 (19200000)
I0616 02:05:48.825269  9857 layer_factory.hpp:76] Creating layer pool2
I0616 02:05:48.825274  9857 net.cpp:110] Creating Layer pool2
I0616 02:05:48.825278  9857 net.cpp:477] pool2 <- conv2_2
I0616 02:05:48.825280  9857 net.cpp:433] pool2 -> pool2
I0616 02:05:48.825285  9857 net.cpp:155] Setting up pool2
I0616 02:05:48.825289  9857 net.cpp:163] Top shape: 1 128 150 250 (4800000)
I0616 02:05:48.825291  9857 layer_factory.hpp:76] Creating layer conv3_1
I0616 02:05:48.825296  9857 net.cpp:110] Creating Layer conv3_1
I0616 02:05:48.825299  9857 net.cpp:477] conv3_1 <- pool2
I0616 02:05:48.825302  9857 net.cpp:433] conv3_1 -> conv3_1
I0616 02:05:48.826033  9857 net.cpp:155] Setting up conv3_1
I0616 02:05:48.826041  9857 net.cpp:163] Top shape: 1 256 150 250 (9600000)
I0616 02:05:48.826047  9857 layer_factory.hpp:76] Creating layer relu3_1
I0616 02:05:48.826052  9857 net.cpp:110] Creating Layer relu3_1
I0616 02:05:48.826056  9857 net.cpp:477] relu3_1 <- conv3_1
I0616 02:05:48.826058  9857 net.cpp:419] relu3_1 -> conv3_1 (in-place)
I0616 02:05:48.826063  9857 net.cpp:155] Setting up relu3_1
I0616 02:05:48.826066  9857 net.cpp:163] Top shape: 1 256 150 250 (9600000)
I0616 02:05:48.826068  9857 layer_factory.hpp:76] Creating layer conv3_2
I0616 02:05:48.826074  9857 net.cpp:110] Creating Layer conv3_2
I0616 02:05:48.826077  9857 net.cpp:477] conv3_2 <- conv3_1
I0616 02:05:48.826081  9857 net.cpp:433] conv3_2 -> conv3_2
I0616 02:05:48.827100  9857 net.cpp:155] Setting up conv3_2
I0616 02:05:48.827108  9857 net.cpp:163] Top shape: 1 256 150 250 (9600000)
I0616 02:05:48.827113  9857 layer_factory.hpp:76] Creating layer relu3_2
I0616 02:05:48.827118  9857 net.cpp:110] Creating Layer relu3_2
I0616 02:05:48.827121  9857 net.cpp:477] relu3_2 <- conv3_2
I0616 02:05:48.827126  9857 net.cpp:419] relu3_2 -> conv3_2 (in-place)
I0616 02:05:48.827129  9857 net.cpp:155] Setting up relu3_2
I0616 02:05:48.827133  9857 net.cpp:163] Top shape: 1 256 150 250 (9600000)
I0616 02:05:48.827136  9857 layer_factory.hpp:76] Creating layer conv3_3
I0616 02:05:48.827139  9857 net.cpp:110] Creating Layer conv3_3
I0616 02:05:48.827142  9857 net.cpp:477] conv3_3 <- conv3_2
I0616 02:05:48.827145  9857 net.cpp:433] conv3_3 -> conv3_3
I0616 02:05:48.828148  9857 net.cpp:155] Setting up conv3_3
I0616 02:05:48.828156  9857 net.cpp:163] Top shape: 1 256 150 250 (9600000)
I0616 02:05:48.828161  9857 layer_factory.hpp:76] Creating layer relu3_3
I0616 02:05:48.828166  9857 net.cpp:110] Creating Layer relu3_3
I0616 02:05:48.828169  9857 net.cpp:477] relu3_3 <- conv3_3
I0616 02:05:48.828172  9857 net.cpp:419] relu3_3 -> conv3_3 (in-place)
I0616 02:05:48.828176  9857 net.cpp:155] Setting up relu3_3
I0616 02:05:48.828181  9857 net.cpp:163] Top shape: 1 256 150 250 (9600000)
I0616 02:05:48.828182  9857 layer_factory.hpp:76] Creating layer pool3
I0616 02:05:48.828186  9857 net.cpp:110] Creating Layer pool3
I0616 02:05:48.828189  9857 net.cpp:477] pool3 <- conv3_3
I0616 02:05:48.828192  9857 net.cpp:433] pool3 -> pool3
I0616 02:05:48.828197  9857 net.cpp:155] Setting up pool3
I0616 02:05:48.828202  9857 net.cpp:163] Top shape: 1 256 75 125 (2400000)
I0616 02:05:48.828203  9857 layer_factory.hpp:76] Creating layer conv4_1
I0616 02:05:48.828208  9857 net.cpp:110] Creating Layer conv4_1
I0616 02:05:48.828212  9857 net.cpp:477] conv4_1 <- pool3
I0616 02:05:48.828214  9857 net.cpp:433] conv4_1 -> conv4_1
I0616 02:05:48.830829  9857 net.cpp:155] Setting up conv4_1
I0616 02:05:48.830850  9857 net.cpp:163] Top shape: 1 512 75 125 (4800000)
I0616 02:05:48.830858  9857 layer_factory.hpp:76] Creating layer relu4_1
I0616 02:05:48.830868  9857 net.cpp:110] Creating Layer relu4_1
I0616 02:05:48.830871  9857 net.cpp:477] relu4_1 <- conv4_1
I0616 02:05:48.830878  9857 net.cpp:419] relu4_1 -> conv4_1 (in-place)
I0616 02:05:48.830885  9857 net.cpp:155] Setting up relu4_1
I0616 02:05:48.830890  9857 net.cpp:163] Top shape: 1 512 75 125 (4800000)
I0616 02:05:48.830894  9857 layer_factory.hpp:76] Creating layer conv4_2
I0616 02:05:48.830901  9857 net.cpp:110] Creating Layer conv4_2
I0616 02:05:48.830905  9857 net.cpp:477] conv4_2 <- conv4_1
I0616 02:05:48.830911  9857 net.cpp:433] conv4_2 -> conv4_2
I0616 02:05:48.833928  9857 net.cpp:155] Setting up conv4_2
I0616 02:05:48.833953  9857 net.cpp:163] Top shape: 1 512 75 125 (4800000)
I0616 02:05:48.833963  9857 layer_factory.hpp:76] Creating layer relu4_2
I0616 02:05:48.833971  9857 net.cpp:110] Creating Layer relu4_2
I0616 02:05:48.833976  9857 net.cpp:477] relu4_2 <- conv4_2
I0616 02:05:48.833981  9857 net.cpp:419] relu4_2 -> conv4_2 (in-place)
I0616 02:05:48.833986  9857 net.cpp:155] Setting up relu4_2
I0616 02:05:48.833989  9857 net.cpp:163] Top shape: 1 512 75 125 (4800000)
I0616 02:05:48.833992  9857 layer_factory.hpp:76] Creating layer conv4_3
I0616 02:05:48.833997  9857 net.cpp:110] Creating Layer conv4_3
I0616 02:05:48.833999  9857 net.cpp:477] conv4_3 <- conv4_2
I0616 02:05:48.834003  9857 net.cpp:433] conv4_3 -> conv4_3
I0616 02:05:48.837036  9857 net.cpp:155] Setting up conv4_3
I0616 02:05:48.837061  9857 net.cpp:163] Top shape: 1 512 75 125 (4800000)
I0616 02:05:48.837069  9857 layer_factory.hpp:76] Creating layer relu4_3
I0616 02:05:48.837077  9857 net.cpp:110] Creating Layer relu4_3
I0616 02:05:48.837080  9857 net.cpp:477] relu4_3 <- conv4_3
I0616 02:05:48.837085  9857 net.cpp:419] relu4_3 -> conv4_3 (in-place)
I0616 02:05:48.837090  9857 net.cpp:155] Setting up relu4_3
I0616 02:05:48.837095  9857 net.cpp:163] Top shape: 1 512 75 125 (4800000)
I0616 02:05:48.837096  9857 layer_factory.hpp:76] Creating layer pool4
I0616 02:05:48.837101  9857 net.cpp:110] Creating Layer pool4
I0616 02:05:48.837105  9857 net.cpp:477] pool4 <- conv4_3
I0616 02:05:48.837108  9857 net.cpp:433] pool4 -> pool4
I0616 02:05:48.837115  9857 net.cpp:155] Setting up pool4
I0616 02:05:48.837118  9857 net.cpp:163] Top shape: 1 512 38 63 (1225728)
I0616 02:05:48.837121  9857 layer_factory.hpp:76] Creating layer conv5_1
I0616 02:05:48.837126  9857 net.cpp:110] Creating Layer conv5_1
I0616 02:05:48.837128  9857 net.cpp:477] conv5_1 <- pool4
I0616 02:05:48.837132  9857 net.cpp:433] conv5_1 -> conv5_1
I0616 02:05:48.840199  9857 net.cpp:155] Setting up conv5_1
I0616 02:05:48.840222  9857 net.cpp:163] Top shape: 1 512 38 63 (1225728)
I0616 02:05:48.840229  9857 layer_factory.hpp:76] Creating layer relu5_1
I0616 02:05:48.840236  9857 net.cpp:110] Creating Layer relu5_1
I0616 02:05:48.840240  9857 net.cpp:477] relu5_1 <- conv5_1
I0616 02:05:48.840245  9857 net.cpp:419] relu5_1 -> conv5_1 (in-place)
I0616 02:05:48.840251  9857 net.cpp:155] Setting up relu5_1
I0616 02:05:48.840255  9857 net.cpp:163] Top shape: 1 512 38 63 (1225728)
I0616 02:05:48.840260  9857 layer_factory.hpp:76] Creating layer conv5_2
I0616 02:05:48.840263  9857 net.cpp:110] Creating Layer conv5_2
I0616 02:05:48.840266  9857 net.cpp:477] conv5_2 <- conv5_1
I0616 02:05:48.840270  9857 net.cpp:433] conv5_2 -> conv5_2
I0616 02:05:48.843602  9857 net.cpp:155] Setting up conv5_2
I0616 02:05:48.843627  9857 net.cpp:163] Top shape: 1 512 38 63 (1225728)
I0616 02:05:48.843636  9857 layer_factory.hpp:76] Creating layer relu5_2
I0616 02:05:48.843643  9857 net.cpp:110] Creating Layer relu5_2
I0616 02:05:48.843648  9857 net.cpp:477] relu5_2 <- conv5_2
I0616 02:05:48.843653  9857 net.cpp:419] relu5_2 -> conv5_2 (in-place)
I0616 02:05:48.843660  9857 net.cpp:155] Setting up relu5_2
I0616 02:05:48.843664  9857 net.cpp:163] Top shape: 1 512 38 63 (1225728)
I0616 02:05:48.843667  9857 layer_factory.hpp:76] Creating layer conv5_3
I0616 02:05:48.843675  9857 net.cpp:110] Creating Layer conv5_3
I0616 02:05:48.843678  9857 net.cpp:477] conv5_3 <- conv5_2
I0616 02:05:48.843683  9857 net.cpp:433] conv5_3 -> conv5_3
I0616 02:05:48.846734  9857 net.cpp:155] Setting up conv5_3
I0616 02:05:48.846763  9857 net.cpp:163] Top shape: 1 512 38 63 (1225728)
I0616 02:05:48.846771  9857 layer_factory.hpp:76] Creating layer relu5_3
I0616 02:05:48.846777  9857 net.cpp:110] Creating Layer relu5_3
I0616 02:05:48.846781  9857 net.cpp:477] relu5_3 <- conv5_3
I0616 02:05:48.846788  9857 net.cpp:419] relu5_3 -> conv5_3 (in-place)
I0616 02:05:48.846808  9857 net.cpp:155] Setting up relu5_3
I0616 02:05:48.846812  9857 net.cpp:163] Top shape: 1 512 38 63 (1225728)
I0616 02:05:48.846815  9857 layer_factory.hpp:76] Creating layer conv5_3_relu5_3_0_split
I0616 02:05:48.846818  9857 net.cpp:110] Creating Layer conv5_3_relu5_3_0_split
I0616 02:05:48.846822  9857 net.cpp:477] conv5_3_relu5_3_0_split <- conv5_3
I0616 02:05:48.846825  9857 net.cpp:433] conv5_3_relu5_3_0_split -> conv5_3_relu5_3_0_split_0
I0616 02:05:48.846830  9857 net.cpp:433] conv5_3_relu5_3_0_split -> conv5_3_relu5_3_0_split_1
I0616 02:05:48.846835  9857 net.cpp:155] Setting up conv5_3_relu5_3_0_split
I0616 02:05:48.846839  9857 net.cpp:163] Top shape: 1 512 38 63 (1225728)
I0616 02:05:48.846843  9857 net.cpp:163] Top shape: 1 512 38 63 (1225728)
I0616 02:05:48.846844  9857 layer_factory.hpp:76] Creating layer rpn_conv/3x3
I0616 02:05:48.846849  9857 net.cpp:110] Creating Layer rpn_conv/3x3
I0616 02:05:48.846853  9857 net.cpp:477] rpn_conv/3x3 <- conv5_3_relu5_3_0_split_0
I0616 02:05:48.846856  9857 net.cpp:433] rpn_conv/3x3 -> rpn/output
I0616 02:05:48.899034  9857 net.cpp:155] Setting up rpn_conv/3x3
I0616 02:05:48.899070  9857 net.cpp:163] Top shape: 1 512 38 63 (1225728)
I0616 02:05:48.899077  9857 layer_factory.hpp:76] Creating layer rpn_relu/3x3
I0616 02:05:48.899085  9857 net.cpp:110] Creating Layer rpn_relu/3x3
I0616 02:05:48.899087  9857 net.cpp:477] rpn_relu/3x3 <- rpn/output
I0616 02:05:48.899092  9857 net.cpp:419] rpn_relu/3x3 -> rpn/output (in-place)
I0616 02:05:48.899101  9857 net.cpp:155] Setting up rpn_relu/3x3
I0616 02:05:48.899103  9857 net.cpp:163] Top shape: 1 512 38 63 (1225728)
I0616 02:05:48.899106  9857 layer_factory.hpp:76] Creating layer rpn/output_rpn_relu/3x3_0_split
I0616 02:05:48.899109  9857 net.cpp:110] Creating Layer rpn/output_rpn_relu/3x3_0_split
I0616 02:05:48.899111  9857 net.cpp:477] rpn/output_rpn_relu/3x3_0_split <- rpn/output
I0616 02:05:48.899114  9857 net.cpp:433] rpn/output_rpn_relu/3x3_0_split -> rpn/output_rpn_relu/3x3_0_split_0
I0616 02:05:48.899119  9857 net.cpp:433] rpn/output_rpn_relu/3x3_0_split -> rpn/output_rpn_relu/3x3_0_split_1
I0616 02:05:48.899124  9857 net.cpp:155] Setting up rpn/output_rpn_relu/3x3_0_split
I0616 02:05:48.899127  9857 net.cpp:163] Top shape: 1 512 38 63 (1225728)
I0616 02:05:48.899130  9857 net.cpp:163] Top shape: 1 512 38 63 (1225728)
I0616 02:05:48.899132  9857 layer_factory.hpp:76] Creating layer rpn_cls_score
I0616 02:05:48.899138  9857 net.cpp:110] Creating Layer rpn_cls_score
I0616 02:05:48.899142  9857 net.cpp:477] rpn_cls_score <- rpn/output_rpn_relu/3x3_0_split_0
I0616 02:05:48.899144  9857 net.cpp:433] rpn_cls_score -> rpn_cls_score
I0616 02:05:48.899418  9857 net.cpp:155] Setting up rpn_cls_score
I0616 02:05:48.899423  9857 net.cpp:163] Top shape: 1 18 38 63 (43092)
I0616 02:05:48.899441  9857 layer_factory.hpp:76] Creating layer rpn_cls_score_rpn_cls_score_0_split
I0616 02:05:48.899446  9857 net.cpp:110] Creating Layer rpn_cls_score_rpn_cls_score_0_split
I0616 02:05:48.899447  9857 net.cpp:477] rpn_cls_score_rpn_cls_score_0_split <- rpn_cls_score
I0616 02:05:48.899452  9857 net.cpp:433] rpn_cls_score_rpn_cls_score_0_split -> rpn_cls_score_rpn_cls_score_0_split_0
I0616 02:05:48.899459  9857 net.cpp:433] rpn_cls_score_rpn_cls_score_0_split -> rpn_cls_score_rpn_cls_score_0_split_1
I0616 02:05:48.899463  9857 net.cpp:155] Setting up rpn_cls_score_rpn_cls_score_0_split
I0616 02:05:48.899467  9857 net.cpp:163] Top shape: 1 18 38 63 (43092)
I0616 02:05:48.899471  9857 net.cpp:163] Top shape: 1 18 38 63 (43092)
I0616 02:05:48.899472  9857 layer_factory.hpp:76] Creating layer rpn_bbox_pred
I0616 02:05:48.899477  9857 net.cpp:110] Creating Layer rpn_bbox_pred
I0616 02:05:48.899478  9857 net.cpp:477] rpn_bbox_pred <- rpn/output_rpn_relu/3x3_0_split_1
I0616 02:05:48.899484  9857 net.cpp:433] rpn_bbox_pred -> rpn_bbox_pred
I0616 02:05:48.899950  9857 net.cpp:155] Setting up rpn_bbox_pred
I0616 02:05:48.899955  9857 net.cpp:163] Top shape: 1 36 38 63 (86184)
I0616 02:05:48.899960  9857 layer_factory.hpp:76] Creating layer rpn_bbox_pred_rpn_bbox_pred_0_split
I0616 02:05:48.899965  9857 net.cpp:110] Creating Layer rpn_bbox_pred_rpn_bbox_pred_0_split
I0616 02:05:48.899967  9857 net.cpp:477] rpn_bbox_pred_rpn_bbox_pred_0_split <- rpn_bbox_pred
I0616 02:05:48.899971  9857 net.cpp:433] rpn_bbox_pred_rpn_bbox_pred_0_split -> rpn_bbox_pred_rpn_bbox_pred_0_split_0
I0616 02:05:48.899976  9857 net.cpp:433] rpn_bbox_pred_rpn_bbox_pred_0_split -> rpn_bbox_pred_rpn_bbox_pred_0_split_1
I0616 02:05:48.899979  9857 net.cpp:155] Setting up rpn_bbox_pred_rpn_bbox_pred_0_split
I0616 02:05:48.899983  9857 net.cpp:163] Top shape: 1 36 38 63 (86184)
I0616 02:05:48.899986  9857 net.cpp:163] Top shape: 1 36 38 63 (86184)
I0616 02:05:48.899989  9857 layer_factory.hpp:76] Creating layer rpn_cls_score_reshape
I0616 02:05:48.899996  9857 net.cpp:110] Creating Layer rpn_cls_score_reshape
I0616 02:05:48.899998  9857 net.cpp:477] rpn_cls_score_reshape <- rpn_cls_score_rpn_cls_score_0_split_0
I0616 02:05:48.900002  9857 net.cpp:433] rpn_cls_score_reshape -> rpn_cls_score_reshape
I0616 02:05:48.900007  9857 net.cpp:155] Setting up rpn_cls_score_reshape
I0616 02:05:48.900012  9857 net.cpp:163] Top shape: 1 2 342 63 (43092)
I0616 02:05:48.900014  9857 layer_factory.hpp:76] Creating layer rpn_cls_score_reshape_rpn_cls_score_reshape_0_split
I0616 02:05:48.900017  9857 net.cpp:110] Creating Layer rpn_cls_score_reshape_rpn_cls_score_reshape_0_split
I0616 02:05:48.900020  9857 net.cpp:477] rpn_cls_score_reshape_rpn_cls_score_reshape_0_split <- rpn_cls_score_reshape
I0616 02:05:48.900023  9857 net.cpp:433] rpn_cls_score_reshape_rpn_cls_score_reshape_0_split -> rpn_cls_score_reshape_rpn_cls_score_reshape_0_split_0
I0616 02:05:48.900028  9857 net.cpp:433] rpn_cls_score_reshape_rpn_cls_score_reshape_0_split -> rpn_cls_score_reshape_rpn_cls_score_reshape_0_split_1
I0616 02:05:48.900032  9857 net.cpp:155] Setting up rpn_cls_score_reshape_rpn_cls_score_reshape_0_split
I0616 02:05:48.900037  9857 net.cpp:163] Top shape: 1 2 342 63 (43092)
I0616 02:05:48.900038  9857 net.cpp:163] Top shape: 1 2 342 63 (43092)
I0616 02:05:48.900041  9857 layer_factory.hpp:76] Creating layer rpn-data
I0616 02:05:48.900382  9857 net.cpp:110] Creating Layer rpn-data
I0616 02:05:48.900389  9857 net.cpp:477] rpn-data <- rpn_cls_score_rpn_cls_score_0_split_1
I0616 02:05:48.900394  9857 net.cpp:477] rpn-data <- gt_boxes_input-data_2_split_0
I0616 02:05:48.900398  9857 net.cpp:477] rpn-data <- im_info_input-data_1_split_0
I0616 02:05:48.900401  9857 net.cpp:477] rpn-data <- data_input-data_0_split_1
I0616 02:05:48.900406  9857 net.cpp:433] rpn-data -> rpn_labels
I0616 02:05:48.900411  9857 net.cpp:433] rpn-data -> rpn_bbox_targets
I0616 02:05:48.900418  9857 net.cpp:433] rpn-data -> rpn_bbox_inside_weights
I0616 02:05:48.900423  9857 net.cpp:433] rpn-data -> rpn_bbox_outside_weights
I0616 02:05:48.900877  9857 net.cpp:155] Setting up rpn-data
I0616 02:05:48.900888  9857 net.cpp:163] Top shape: 1 1 342 63 (21546)
I0616 02:05:48.900892  9857 net.cpp:163] Top shape: 1 36 38 63 (86184)
I0616 02:05:48.900895  9857 net.cpp:163] Top shape: 1 36 38 63 (86184)
I0616 02:05:48.900898  9857 net.cpp:163] Top shape: 1 36 38 63 (86184)
I0616 02:05:48.900902  9857 layer_factory.hpp:76] Creating layer rpn_loss_cls
I0616 02:05:48.900907  9857 net.cpp:110] Creating Layer rpn_loss_cls
I0616 02:05:48.900910  9857 net.cpp:477] rpn_loss_cls <- rpn_cls_score_reshape_rpn_cls_score_reshape_0_split_0
I0616 02:05:48.900914  9857 net.cpp:477] rpn_loss_cls <- rpn_labels
I0616 02:05:48.900918  9857 net.cpp:433] rpn_loss_cls -> rpn_cls_loss
…
I0616 02:05:48.901486  9857 net.cpp:155] Setting up rpn_loss_bbox
I0616 02:05:48.901491  9857 net.cpp:163] Top shape: (1)
I0616 02:05:48.901494  9857 net.cpp:168]     with loss weight 1
I0616 02:05:48.901499  9857 layer_factory.hpp:76] Creating layer rpn_cls_prob
I0616 02:05:48.901502  9857 net.cpp:110] Creating Layer rpn_cls_prob
I0616 02:05:48.901505  9857 net.cpp:477] rpn_cls_prob <- rpn_cls_score_reshape_rpn_cls_score_reshape_0_split_1
I0616 02:05:48.901509  9857 net.cpp:433] rpn_cls_prob -> rpn_cls_prob
I0616 02:05:48.901530  9857 net.cpp:155] Setting up rpn_cls_prob
I0616 02:05:48.901533  9857 net.cpp:163] Top shape: 1 2 342 63 (43092)
I0616 02:05:48.901536  9857 layer_factory.hpp:76] Creating layer rpn_cls_prob_reshape
I0616 02:05:48.901541  9857 net.cpp:110] Creating Layer rpn_cls_prob_reshape
I0616 02:05:48.901545  9857 net.cpp:477] rpn_cls_prob_reshape <- rpn_cls_prob
I0616 02:05:48.901548  9857 net.cpp:433] rpn_cls_prob_reshape -> rpn_cls_prob_reshape
I0616 02:05:48.901554  9857 net.cpp:155] Setting up rpn_cls_prob_reshape
I0616 02:05:48.901558  9857 net.cpp:163] Top shape: 1 18 38 63 (43092)
I0616 02:05:48.901561  9857 layer_factory.hpp:76] Creating layer proposal
I0616 02:05:48.901963  9857 net.cpp:110] Creating Layer proposal
I0616 02:05:48.901971  9857 net.cpp:477] proposal <- rpn_cls_prob_reshape
I0616 02:05:48.901976  9857 net.cpp:477] proposal <- rpn_bbox_pred_rpn_bbox_pred_0_split_1
I0616 02:05:48.901979  9857 net.cpp:477] proposal <- im_info_input-data_1_split_1
I0616 02:05:48.901984  9857 net.cpp:433] proposal -> rpn_rois
I0616 02:05:48.902438  9857 net.cpp:155] Setting up proposal
I0616 02:05:48.902448  9857 net.cpp:163] Top shape: 1 5 (5)
I0616 02:05:48.902452  9857 layer_factory.hpp:76] Creating layer roi-data
I0616 02:05:48.902549  9857 net.cpp:110] Creating Layer roi-data
I0616 02:05:48.902555  9857 net.cpp:477] roi-data <- rpn_rois
I0616 02:05:48.902560  9857 net.cpp:477] roi-data <- gt_boxes_input-data_2_split_1
I0616 02:05:48.902565  9857 net.cpp:433] roi-data -> rois
I0616 02:05:48.902570  9857 net.cpp:433] roi-data -> labels
I0616 02:05:48.902575  9857 net.cpp:433] roi-data -> bbox_targets
I0616 02:05:48.902580  9857 net.cpp:433] roi-data -> bbox_inside_weights
I0616 02:05:48.902585  9857 net.cpp:433] roi-data -> bbox_outside_weights
I0616 02:05:48.902909  9857 net.cpp:155] Setting up roi-data
I0616 02:05:48.902918  9857 net.cpp:163] Top shape: 1 5 (5)
I0616 02:05:48.902922  9857 net.cpp:163] Top shape: 1 1 (1)
I0616 02:05:48.902925  9857 net.cpp:163] Top shape: 1 804 (804)
I0616 02:05:48.902928  9857 net.cpp:163] Top shape: 1 804 (804)
I0616 02:05:48.902930  9857 net.cpp:163] Top shape: 1 804 (804)
I0616 02:05:48.902933  9857 layer_factory.hpp:76] Creating layer roi_pool5
I0616 02:05:48.902938  9857 net.cpp:110] Creating Layer roi_pool5
I0616 02:05:48.902941  9857 net.cpp:477] roi_pool5 <- conv5_3_relu5_3_0_split_1
I0616 02:05:48.902945  9857 net.cpp:477] roi_pool5 <- rois
I0616 02:05:48.902950  9857 net.cpp:433] roi_pool5 -> pool5
I0616 02:05:48.902956  9857 roi_pooling_layer.cpp:30] Spatial scale: 0.0625
I0616 02:05:48.902961  9857 net.cpp:155] Setting up roi_pool5
I0616 02:05:48.902966  9857 net.cpp:163] Top shape: 1 512 7 7 (25088)
I0616 02:05:48.902968  9857 layer_factory.hpp:76] Creating layer fc6
I0616 02:05:48.902972  9857 net.cpp:110] Creating Layer fc6
I0616 02:05:48.902976  9857 net.cpp:477] fc6 <- pool5
I0616 02:05:48.902979  9857 net.cpp:433] fc6 -> fc6
I0616 02:05:49.028956  9857 net.cpp:155] Setting up fc6
I0616 02:05:49.028995  9857 net.cpp:163] Top shape: 1 4096 (4096)
I0616 02:05:49.029008  9857 layer_factory.hpp:76] Creating layer relu6
I0616 02:05:49.029016  9857 net.cpp:110] Creating Layer relu6
I0616 02:05:49.029019  9857 net.cpp:477] relu6 <- fc6
I0616 02:05:49.029023  9857 net.cpp:419] relu6 -> fc6 (in-place)
I0616 02:05:49.029031  9857 net.cpp:155] Setting up relu6
I0616 02:05:49.029034  9857 net.cpp:163] Top shape: 1 4096 (4096)
I0616 02:05:49.029037  9857 layer_factory.hpp:76] Creating layer drop6
I0616 02:05:49.029042  9857 net.cpp:110] Creating Layer drop6
I0616 02:05:49.029044  9857 net.cpp:477] drop6 <- fc6
I0616 02:05:49.029047  9857 net.cpp:419] drop6 -> fc6 (in-place)
I0616 02:05:49.029053  9857 net.cpp:155] Setting up drop6
I0616 02:05:49.029057  9857 net.cpp:163] Top shape: 1 4096 (4096)
I0616 02:05:49.029059  9857 layer_factory.hpp:76] Creating layer fc7
I0616 02:05:49.029064  9857 net.cpp:110] Creating Layer fc7
I0616 02:05:49.029067  9857 net.cpp:477] fc7 <- fc6
I0616 02:05:49.029070  9857 net.cpp:433] fc7 -> fc7
I0616 02:05:49.049935  9857 net.cpp:155] Setting up fc7
I0616 02:05:49.049973  9857 net.cpp:163] Top shape: 1 4096 (4096)
I0616 02:05:49.049980  9857 layer_factory.hpp:76] Creating layer relu7
I0616 02:05:49.049988  9857 net.cpp:110] Creating Layer relu7
I0616 02:05:49.049991  9857 net.cpp:477] relu7 <- fc7
I0616 02:05:49.049995  9857 net.cpp:419] relu7 -> fc7 (in-place)
I0616 02:05:49.050001  9857 net.cpp:155] Setting up relu7
I0616 02:05:49.050005  9857 net.cpp:163] Top shape: 1 4096 (4096)
I0616 02:05:49.050007  9857 layer_factory.hpp:76] Creating layer drop7
I0616 02:05:49.050011  9857 net.cpp:110] Creating Layer drop7
I0616 02:05:49.050014  9857 net.cpp:477] drop7 <- fc7
I0616 02:05:49.050019  9857 net.cpp:419] drop7 -> fc7 (in-place)
I0616 02:05:49.050024  9857 net.cpp:155] Setting up drop7
I0616 02:05:49.050027  9857 net.cpp:163] Top shape: 1 4096 (4096)
I0616 02:05:49.050029  9857 layer_factory.hpp:76] Creating layer fc7_drop7_0_split
I0616 02:05:49.050034  9857 net.cpp:110] Creating Layer fc7_drop7_0_split
I0616 02:05:49.050037  9857 net.cpp:477] fc7_drop7_0_split <- fc7
I0616 02:05:49.050041  9857 net.cpp:433] fc7_drop7_0_split -> fc7_drop7_0_split_0
I0616 02:05:49.050045  9857 net.cpp:433] fc7_drop7_0_split -> fc7_drop7_0_split_1
I0616 02:05:49.050050  9857 net.cpp:155] Setting up fc7_drop7_0_split
I0616 02:05:49.050053  9857 net.cpp:163] Top shape: 1 4096 (4096)
I0616 02:05:49.050056  9857 net.cpp:163] Top shape: 1 4096 (4096)
I0616 02:05:49.050060  9857 layer_factory.hpp:76] Creating layer cls_score
I0616 02:05:49.050065  9857 net.cpp:110] Creating Layer cls_score
I0616 02:05:49.050067  9857 net.cpp:477] cls_score <- fc7_drop7_0_split_0
I0616 02:05:49.050071  9857 net.cpp:433] cls_score -> cls_score
I0616 02:05:49.068348  9857 net.cpp:155] Setting up cls_score
I0616 02:05:49.068359  9857 net.cpp:163] Top shape: 1 201 (201)
I0616 02:05:49.068364  9857 layer_factory.hpp:76] Creating layer bbox_pred
I0616 02:05:49.068372  9857 net.cpp:110] Creating Layer bbox_pred
I0616 02:05:49.068374  9857 net.cpp:477] bbox_pred <- fc7_drop7_0_split_1
I0616 02:05:49.068378  9857 net.cpp:433] bbox_pred -> bbox_pred
I0616 02:05:49.140568  9857 net.cpp:155] Setting up bbox_pred
I0616 02:05:49.140605  9857 net.cpp:163] Top shape: 1 804 (804)
I0616 02:05:49.140611  9857 layer_factory.hpp:76] Creating layer loss_cls
I0616 02:05:49.140620  9857 net.cpp:110] Creating Layer loss_cls
I0616 02:05:49.140624  9857 net.cpp:477] loss_cls <- cls_score
I0616 02:05:49.140628  9857 net.cpp:477] loss_cls <- labels
I0616 02:05:49.140635  9857 net.cpp:433] loss_cls -> loss_cls
I0616 02:05:49.140643  9857 layer_factory.hpp:76] Creating layer loss_cls
…
           'RPN_POST_NMS_TOP_N': 2000,
           'RPN_PRE_NMS_TOP_N': 12000,
           'SCALES': [600],
           'SNAPSHOT_INFIX': '',
           'SNAPSHOT_ITERS': 10000,
           'USE_FLIPPED': True,
           'USE_PREFETCH': False},
 'USE_GPU_NMS': True}
WARNING: Logging before InitGoogleLogging() is written to STDERR
I0616 18:37:28.329444 12684 net.cpp:50] Initializing net from parameters: 
name: "VGG_ILSVRC_16_layers"
input: "data"
input: "im_info"
state {
  phase: TEST
}
input_shape {
  dim: 1
  dim: 3
  dim: 224
  dim: 224
}
input_shape {
  dim: 1
  dim: 3
}
layer {
  name: "conv1_1"
  type: "Convolution"
  bottom: "data"
  top: "conv1_1"
  param {
    lr_mult: 0
    decay_mult: 0
  }
  param {
    lr_mult: 0
    decay_mult: 0
  }
  convolution_param {
    num_output: 64
    pad: 1
    kernel_size: 3
  }
}
layer {
  name: "relu1_1"
  type: "ReLU"
  bottom: "conv1_1"
  top: "conv1_1"
}
layer {
  name: "conv1_2"
  type: "Convolution"
  bottom: "conv1_1"
  top: "conv1_2"
  param {
    lr_mult: 0
    decay_mult: 0
  }
  param {
    lr_mult: 0
    decay_mult: 0
  }
  convolution_param {
    num_output: 64
    pad: 1
    kernel_size: 3
  }
}
layer {
  name: "relu1_2"
  type: "ReLU"
  bottom: "conv1_2"
  top: "conv1_2"
}
layer {
  name: "pool1"
  type: "Pooling"
  bottom: "conv1_2"
  top: "pool1"
  pooling_param {
    pool: MAX
    kernel_size: 2
    stride: 2
  }
}
layer {
  name: "conv2_1"
  type: "Convolution"
  bottom: "pool1"
  top: "conv2_1"
  param {
    lr_mult: 0
    decay_mult: 0
  }
  param {
    lr_mult: 0
    decay_mult: 0
  }
  convolution_param {
    num_output: 128
    pad: 1
    kernel_size: 3
  }
}
layer {
  name: "relu2_1"
  type: "ReLU"
  bottom: "conv2_1"
  top: "conv2_1"
}
layer {
  name: "conv2_2"
  type: "Convolution"
  bottom: "conv2_1"
  top: "conv2_2"
  param {
    lr_mult: 0
    decay_mult: 0
  }
  param {
    lr_mult: 0
    decay_mult: 0
  }
  convolution_param {
    num_output: 128
    pad: 1
    kernel_size: 3
  }
}
layer {
  name: "relu2_2"
  type: "ReLU"
  bottom: "conv2_2"
  top: "conv2_2"
}
layer {
  name: "pool2"
  type: "Pooling"
  bottom: "conv2_2"
  top: "pool2"
  pooling_param {
    pool: MAX
    kernel_size: 2
    stride: 2
  }
}
layer {
  name: "conv3_1"
  type: "Convolution"
  bottom: "pool2"
  top: "conv3_1"
  param {
    lr_mult: 1
    decay_mult: 1
  }
  param {
    lr_mult: 2
    decay_mult: 0
  }
  convolution_param {
    num_output: 256
    pad: 1
    kernel_size: 3
  }
}
layer {
  name: "relu3_1"
  type: "ReLU"
  bottom: "conv3_1"
  top: "conv3_1"
}
layer {
  name: "conv3_2"
  type: "Convolution"
  bottom: "conv3_1"
  top: "conv3_2"
  param {
    lr_mult: 1
    decay_mult: 1
  }
  param {
    lr_mult: 2
    decay_mult: 0
  }
  convolution_param {
    num_output: 256
    pad: 1
    kernel_size: 3
  }
}
layer {
  name: "relu3_2"
  type: "ReLU"
  bottom: "conv3_2"
  top: "conv3_2"
}
layer {
  name: "conv3_3"
  type: "Convolution"
  bottom: "conv3_2"
  top: "conv3_3"
  param {
    lr_mult: 1
    decay_mult: 1
  }
  param {
    lr_mult: 2
    decay_mult: 0
  }
  convolution_param {
    num_output: 256
    pad: 1
    kernel_size: 3
  }
}
layer {
  name: "relu3_3"
  type: "ReLU"
  bottom: "conv3_3"
  top: "conv3_3"
}
layer {
  name: "pool3"
  type: "Pooling"
  bottom: "conv3_3"
  top: "pool3"
  pooling_param {
    pool: MAX
    kernel_size: 2
    stride: 2
  }
}
layer {
  name: "conv4_1"
  type: "Convolution"
  bottom: "pool3"
  top: "conv4_1"
  param {
    lr_mult: 1
    decay_mult: 1
  }
  param {
    lr_mult: 2
    decay_mult: 0
  }
  convolution_param {
    num_output: 512
    pad: 1
    kernel_size: 3
  }
}
layer {
  name: "relu4_1"
  type: "ReLU"
  bottom: "conv4_1"
  top: "conv4_1"
}
layer {
  name: "conv4_2"
  type: "Convolution"
  bottom: "conv4_1"
  top: "conv4_2"
  param {
    lr_mult: 1
    decay_mult: 1
  }
  param {
    lr_mult: 2
    decay_mult: 0
  }
  convolution_param {
    num_output: 512
    pad: 1
    kernel_size: 3
  }
}
layer {
  name: "relu4_2"
  type: "ReLU"
  bottom: "conv4_2"
  top: "conv4_2"
}
layer {
  name: "conv4_3"
  type: "Convolution"
  bottom: "conv4_2"
  top: "conv4_3"
  param {
    lr_mult: 1
    decay_mult: 1
  }
  param {
    lr_mult: 2
    decay_mult: 0
  }
  convolution_param {
    num_output: 512
    pad: 1
    kernel_size: 3
  }
}
layer {
  name: "relu4_3"
  type: "ReLU"
  bottom: "conv4_3"
  top: "conv4_3"
}
layer {
  name: "pool4"
  type: "Pooling"
  bottom: "conv4_3"
  top: "pool4"
  pooling_param {
    pool: MAX
    kernel_size: 2
    stride: 2
  }
}
layer {
  name: "conv5_1"
  type: "Convolution"
  bottom: "pool4"
  top: "conv5_1"
  param {
    lr_mult: 1
    decay_mult: 1
  }
  param {
    lr_mult: 2
    decay_mult: 0
  }
  convolution_param {
    num_output: 512
    pad: 1
    kernel_size: 3
  }
}
layer {
  name: "relu5_1"
  type: "ReLU"
  bottom: "conv5_1"
  top: "conv5_1"
}
layer {
  name: "conv5_2"
  type: "Convolution"
  bottom: "conv5_1"
  top: "conv5_2"
  param {
    lr_mult: 1
    decay_mult: 1
  }
  param {
    lr_mult: 2
    decay_mult: 0
  }
  convolution_param {
    num_output: 512
    pad: 1
    kernel_size: 3
  }
}
layer {
  name: "relu5_2"
  type: "ReLU"
  bottom: "conv5_2"
  top: "conv5_2"
}
layer {
  name: "conv5_3"
  type: "Convolution"
  bottom: "conv5_2"
  top: "conv5_3"
  param {
    lr_mult: 1
    decay_mult: 1
  }
  param {
    lr_mult: 2
    decay_mult: 0
  }
  convolution_param {
    num_output: 512
    pad: 1
    kernel_size: 3
  }
}
layer {
  name: "relu5_3"
  type: "ReLU"
  bottom: "conv5_3"
  top: "conv5_3"
}
layer {
  name: "rpn_conv/3x3"
  type: "Convolution"
  bottom: "conv5_3"
  top: "rpn/output"
  param {
    lr_mult: 1
    decay_mult: 1
  }
  param {
    lr_mult: 2
    decay_mult: 0
  }
  convolution_param {
    num_output: 512
    pad: 1
    kernel_size: 3
    stride: 1
    weight_filler {
      type: "gaussian"
      std: 0.01
    }
    bias_filler {
      type: "constant"
      value: 0
    }
  }
}
layer {
  name: "rpn_relu/3x3"
  type: "ReLU"
  bottom: "rpn/output"
  top: "rpn/output"
}
layer {
  name: "rpn_cls_score"
  type: "Convolution"
  bottom: "rpn/output"
  top: "rpn_cls_score"
  param {
    lr_mult: 1
    decay_mult: 1
  }
  param {
    lr_mult: 2
    decay_mult: 0
  }
  convolution_param {
    num_output: 18
    pad: 0
    kernel_size: 1
    stride: 1
    weight_filler {
      type: "gaussian"
      std: 0.01
    }
    bias_filler {
      type: "constant"
      value: 0
    }
  }
}
layer {
  name: "rpn_bbox_pred"
  type: "Convolution"
  bottom: "rpn/output"
  top: "rpn_bbox_pred"
  param {
    lr_mult: 1
    decay_mult: 1
  }
  param {
    lr_mult: 2
    decay_mult: 0
  }
  convolution_param {
    num_output: 36
    pad: 0
    kernel_size: 1
    stride: 1
    weight_filler {
      type: "gaussian"
      std: 0.01
    }
    bias_filler {
      type: "constant"
      value: 0
    }
  }
}
layer {
  name: "rpn_cls_score_reshape"
  type: "Reshape"
  bottom: "rpn_cls_score"
  top: "rpn_cls_score_reshape"
  reshape_param {
    shape {
      dim: 0
      dim: 2
      dim: -1
      dim: 0
    }
  }
}
layer {
  name: "rpn_cls_prob"
  type: "Softmax"
  bottom: "rpn_cls_score_reshape"
  top: "rpn_cls_prob"
}
layer {
  name: "rpn_cls_prob_reshape"
  type: "Reshape"
  bottom: "rpn_cls_prob"
  top: "rpn_cls_prob_reshape"
  reshape_param {
    shape {
      dim: 0
      dim: 18
      dim: -1
      dim: 0
    }
  }
}
layer {
  name: "proposal"
  type: "Python"
  bottom: "rpn_cls_prob_reshape"
  bottom: "rpn_bbox_pred"
  bottom: "im_info"
  top: "rois"
  python_param {
    module: "rpn.proposal_layer"
    layer: "ProposalLayer"
    param_str: "\'feat_stride\': 16"
  }
}
layer {
  name: "roi_pool5"
  type: "ROIPooling"
  bottom: "conv5_3"
  bottom: "rois"
  top: "pool5"
  roi_pooling_param {
    pooled_h: 7
    pooled_w: 7
    spatial_scale: 0.0625
  }
}
layer {
  name: "fc6"
  type: "InnerProduct"
  bottom: "pool5"
  top: "fc6"
  param {
    lr_mult: 1
    decay_mult: 1
  }
  param {
    lr_mult: 2
    decay_mult: 0
  }
  inner_product_param {
    num_output: 4096
  }
}
layer {
  name: "relu6"
  type: "ReLU"
  bottom: "fc6"
  top: "fc6"
}
layer {
  name: "drop6"
  type: "Dropout"
  bottom: "fc6"
  top: "fc6"
  dropout_param {
    dropout_ratio: 0.5
  }
}
layer {
  name: "fc7"
  type: "InnerProduct"
  bottom: "fc6"
  top: "fc7"
  param {
    lr_mult: 1
    decay_mult: 1
  }
  param {
    lr_mult: 2
    decay_mult: 0
  }
  inner_product_param {
    num_output: 4096
  }
}
layer {
  name: "relu7"
  type: "ReLU"
  bottom: "fc7"
  top: "fc7"
}
layer {
  name: "drop7"
  type: "Dropout"
  bottom: "fc7"
  top: "fc7"
  dropout_param {
    dropout_ratio: 0.5
  }
}
layer {
  name: "cls_score"
  type: "InnerProduct"
  bottom: "fc7"
  top: "cls_score"
  param {
    lr_mult: 1
    decay_mult: 1
  }
  param {
    lr_mult: 2
    decay_mult: 0
  }
  inner_product_param {
    num_output: 201
    weight_filler {
      type: "gaussian"
      std: 0.01
    }
    bias_filler {
      type: "constant"
      value: 0
    }
  }
}
layer {
  name: "bbox_pred"
  type: "InnerProduct"
  bottom: "fc7"
  top: "bbox_pred"
  param {
    lr_mult: 1
    decay_mult: 1
  }
  param {
    lr_mult: 2
    decay_mult: 0
  }
  inner_product_param {
    num_output: 804
    weight_filler {
      type: "gaussian"
      std: 0.001
    }
    bias_filler {
      type: "constant"
      value: 0
    }
  }
}
layer {
  name: "cls_prob"
  type: "Softmax"
  bottom: "cls_score"
  top: "cls_prob"
}
I0616 18:37:28.329586 12684 net.cpp:435] Input 0 -> data
I0616 18:37:28.329615 12684 net.cpp:435] Input 1 -> im_info
I0616 18:37:28.329624 12684 layer_factory.hpp:76] Creating layer conv1_1
I0616 18:37:28.329630 12684 net.cpp:110] Creating Layer conv1_1
I0616 18:37:28.329633 12684 net.cpp:477] conv1_1 <- data
I0616 18:37:28.329637 12684 net.cpp:433] conv1_1 -> conv1_1
I0616 18:37:28.554134 12684 net.cpp:155] Setting up conv1_1
I0616 18:37:28.554172 12684 net.cpp:163] Top shape: 1 64 224 224 (3211264)
I0616 18:37:28.554185 12684 layer_factory.hpp:76] Creating layer relu1_1
I0616 18:37:28.554194 12684 net.cpp:110] Creating Layer relu1_1
I0616 18:37:28.554198 12684 net.cpp:477] relu1_1 <- conv1_1
I0616 18:37:28.554203 12684 net.cpp:419] relu1_1 -> conv1_1 (in-place)
I0616 18:37:28.554214 12684 net.cpp:155] Setting up relu1_1
I0616 18:37:28.554216 12684 net.cpp:163] Top shape: 1 64 224 224 (3211264)
I0616 18:37:28.554219 12684 layer_factory.hpp:76] Creating layer conv1_2
I0616 18:37:28.554224 12684 net.cpp:110] Creating Layer conv1_2
I0616 18:37:28.554226 12684 net.cpp:477] conv1_2 <- conv1_1
I0616 18:37:28.554229 12684 net.cpp:433] conv1_2 -> conv1_2
I0616 18:37:28.554316 12684 net.cpp:155] Setting up conv1_2
I0616 18:37:28.554322 12684 net.cpp:163] Top shape: 1 64 224 224 (3211264)
I0616 18:37:28.554340 12684 layer_factory.hpp:76] Creating layer relu1_2
I0616 18:37:28.554343 12684 net.cpp:110] Creating Layer relu1_2
I0616 18:37:28.554347 12684 net.cpp:477] relu1_2 <- conv1_2
I0616 18:37:28.554349 12684 net.cpp:419] relu1_2 -> conv1_2 (in-place)
I0616 18:37:28.554354 12684 net.cpp:155] Setting up relu1_2
I0616 18:37:28.554358 12684 net.cpp:163] Top shape: 1 64 224 224 (3211264)
I0616 18:37:28.554360 12684 layer_factory.hpp:76] Creating layer pool1
I0616 18:37:28.554365 12684 net.cpp:110] Creating Layer pool1
I0616 18:37:28.554368 12684 net.cpp:477] pool1 <- conv1_2
I0616 18:37:28.554371 12684 net.cpp:433] pool1 -> pool1
I0616 18:37:28.554378 12684 net.cpp:155] Setting up pool1
I0616 18:37:28.554381 12684 net.cpp:163] Top shape: 1 64 112 112 (802816)
I0616 18:37:28.554384 12684 layer_factory.hpp:76] Creating layer conv2_1
I0616 18:37:28.554389 12684 net.cpp:110] Creating Layer conv2_1
I0616 18:37:28.554392 12684 net.cpp:477] conv2_1 <- pool1
I0616 18:37:28.554395 12684 net.cpp:433] conv2_1 -> conv2_1
I0616 18:37:28.555274 12684 net.cpp:155] Setting up conv2_1
I0616 18:37:28.555281 12684 net.cpp:163] Top shape: 1 128 112 112 (1605632)
I0616 18:37:28.555289 12684 layer_factory.hpp:76] Creating layer relu2_1
I0616 18:37:28.555294 12684 net.cpp:110] Creating Layer relu2_1
I0616 18:37:28.555296 12684 net.cpp:477] relu2_1 <- conv2_1
I0616 18:37:28.555299 12684 net.cpp:419] relu2_1 -> conv2_1 (in-place)
I0616 18:37:28.555305 12684 net.cpp:155] Setting up relu2_1
I0616 18:37:28.555307 12684 net.cpp:163] Top shape: 1 128 112 112 (1605632)
I0616 18:37:28.555310 12684 layer_factory.hpp:76] Creating layer conv2_2
I0616 18:37:28.555315 12684 net.cpp:110] Creating Layer conv2_2
I0616 18:37:28.555317 12684 net.cpp:477] conv2_2 <- conv2_1
I0616 18:37:28.555320 12684 net.cpp:433] conv2_2 -> conv2_2
I0616 18:37:28.555421 12684 net.cpp:155] Setting up conv2_2
I0616 18:37:28.555426 12684 net.cpp:163] Top shape: 1 128 112 112 (1605632)
I0616 18:37:28.555430 12684 layer_factory.hpp:76] Creating layer relu2_2
I0616 18:37:28.555435 12684 net.cpp:110] Creating Layer relu2_2
I0616 18:37:28.555438 12684 net.cpp:477] relu2_2 <- conv2_2
I0616 18:37:28.555441 12684 net.cpp:419] relu2_2 -> conv2_2 (in-place)
I0616 18:37:28.555445 12684 net.cpp:155] Setting up relu2_2
I0616 18:37:28.555449 12684 net.cpp:163] Top shape: 1 128 112 112 (1605632)
I0616 18:37:28.555450 12684 layer_factory.hpp:76] Creating layer pool2
I0616 18:37:28.555454 12684 net.cpp:110] Creating Layer pool2
I0616 18:37:28.555457 12684 net.cpp:477] pool2 <- conv2_2
I0616 18:37:28.555460 12684 net.cpp:433] pool2 -> pool2
I0616 18:37:28.555465 12684 net.cpp:155] Setting up pool2
I0616 18:37:28.555469 12684 net.cpp:163] Top shape: 1 128 56 56 (401408)
I0616 18:37:28.555471 12684 layer_factory.hpp:76] Creating layer conv3_1
I0616 18:37:28.555475 12684 net.cpp:110] Creating Layer conv3_1
I0616 18:37:28.555477 12684 net.cpp:477] conv3_1 <- pool2
I0616 18:37:28.555483 12684 net.cpp:433] conv3_1 -> conv3_1
I0616 18:37:28.556074 12684 net.cpp:155] Setting up conv3_1
I0616 18:37:28.556082 12684 net.cpp:163] Top shape: 1 256 56 56 (802816)
I0616 18:37:28.556090 12684 layer_factory.hpp:76] Creating layer relu3_1
I0616 18:37:28.556094 12684 net.cpp:110] Creating Layer relu3_1
I0616 18:37:28.556097 12684 net.cpp:477] relu3_1 <- conv3_1
I0616 18:37:28.556102 12684 net.cpp:419] relu3_1 -> conv3_1 (in-place)
I0616 18:37:28.556105 12684 net.cpp:155] Setting up relu3_1
I0616 18:37:28.556108 12684 net.cpp:163] Top shape: 1 256 56 56 (802816)
I0616 18:37:28.556112 12684 layer_factory.hpp:76] Creating layer conv3_2
I0616 18:37:28.556115 12684 net.cpp:110] Creating Layer conv3_2
I0616 18:37:28.556118 12684 net.cpp:477] conv3_2 <- conv3_1
I0616 18:37:28.556121 12684 net.cpp:433] conv3_2 -> conv3_2
I0616 18:37:28.557014 12684 net.cpp:155] Setting up conv3_2
I0616 18:37:28.557023 12684 net.cpp:163] Top shape: 1 256 56 56 (802816)
I0616 18:37:28.557027 12684 layer_factory.hpp:76] Creating layer relu3_2
I0616 18:37:28.557031 12684 net.cpp:110] Creating Layer relu3_2
I0616 18:37:28.557034 12684 net.cpp:477] relu3_2 <- conv3_2
I0616 18:37:28.557039 12684 net.cpp:419] relu3_2 -> conv3_2 (in-place)
I0616 18:37:28.557042 12684 net.cpp:155] Setting up relu3_2
I0616 18:37:28.557045 12684 net.cpp:163] Top shape: 1 256 56 56 (802816)
I0616 18:37:28.557047 12684 layer_factory.hpp:76] Creating layer conv3_3
I0616 18:37:28.557052 12684 net.cpp:110] Creating Layer conv3_3
I0616 18:37:28.557055 12684 net.cpp:477] conv3_3 <- conv3_2
I0616 18:37:28.557060 12684 net.cpp:433] conv3_3 -> conv3_3
I0616 18:37:28.557953 12684 net.cpp:155] Setting up conv3_3
I0616 18:37:28.557961 12684 net.cpp:163] Top shape: 1 256 56 56 (802816)
I0616 18:37:28.557966 12684 layer_factory.hpp:76] Creating layer relu3_3
I0616 18:37:28.557971 12684 net.cpp:110] Creating Layer relu3_3
I0616 18:37:28.557973 12684 net.cpp:477] relu3_3 <- conv3_3
I0616 18:37:28.557976 12684 net.cpp:419] relu3_3 -> conv3_3 (in-place)
I0616 18:37:28.557979 12684 net.cpp:155] Setting up relu3_3
I0616 18:37:28.557982 12684 net.cpp:163] Top shape: 1 256 56 56 (802816)
I0616 18:37:28.557986 12684 layer_factory.hpp:76] Creating layer pool3
I0616 18:37:28.557991 12684 net.cpp:110] Creating Layer pool3
I0616 18:37:28.557994 12684 net.cpp:477] pool3 <- conv3_3
I0616 18:37:28.557998 12684 net.cpp:433] pool3 -> pool3
I0616 18:37:28.558002 12684 net.cpp:155] Setting up pool3
I0616 18:37:28.558007 12684 net.cpp:163] Top shape: 1 256 28 28 (200704)
I0616 18:37:28.558008 12684 layer_factory.hpp:76] Creating layer conv4_1
I0616 18:37:28.558012 12684 net.cpp:110] Creating Layer conv4_1
I0616 18:37:28.558014 12684 net.cpp:477] conv4_1 <- pool3
I0616 18:37:28.558017 12684 net.cpp:433] conv4_1 -> conv4_1
I0616 18:37:28.559984 12684 net.cpp:155] Setting up conv4_1
I0616 18:37:28.559999 12684 net.cpp:163] Top shape: 1 512 28 28 (401408)
I0616 18:37:28.560005 12684 layer_factory.hpp:76] Creating layer relu4_1
I0616 18:37:28.560011 12684 net.cpp:110] Creating Layer relu4_1
I0616 18:37:28.560014 12684 net.cpp:477] relu4_1 <- conv4_1
I0616 18:37:28.560019 12684 net.cpp:419] relu4_1 -> conv4_1 (in-place)
I0616 18:37:28.560024 12684 net.cpp:155] Setting up relu4_1
I0616 18:37:28.560027 12684 net.cpp:163] Top shape: 1 512 28 28 (401408)
I0616 18:37:28.560030 12684 layer_factory.hpp:76] Creating layer conv4_2
I0616 18:37:28.560034 12684 net.cpp:110] Creating Layer conv4_2
I0616 18:37:28.560036 12684 net.cpp:477] conv4_2 <- conv4_1
I0616 18:37:28.560053 12684 net.cpp:433] conv4_2 -> conv4_2
I0616 18:37:28.563032 12684 net.cpp:155] Setting up conv4_2
I0616 18:37:28.563053 12684 net.cpp:163] Top shape: 1 512 28 28 (401408)
I0616 18:37:28.563065 12684 layer_factory.hpp:76] Creating layer relu4_2
I0616 18:37:28.563071 12684 net.cpp:110] Creating Layer relu4_2
I0616 18:37:28.563074 12684 net.cpp:477] relu4_2 <- conv4_2
I0616 18:37:28.563078 12684 net.cpp:419] relu4_2 -> conv4_2 (in-place)
I0616 18:37:28.563083 12684 net.cpp:155] Setting up relu4_2
I0616 18:37:28.563087 12684 net.cpp:163] Top shape: 1 512 28 28 (401408)
I0616 18:37:28.563091 12684 layer_factory.hpp:76] Creating layer conv4_3
I0616 18:37:28.563096 12684 net.cpp:110] Creating Layer conv4_3
I0616 18:37:28.563098 12684 net.cpp:477] conv4_3 <- conv4_2
I0616 18:37:28.563102 12684 net.cpp:433] conv4_3 -> conv4_3
I0616 18:37:28.566105 12684 net.cpp:155] Setting up conv4_3
I0616 18:37:28.566128 12684 net.cpp:163] Top shape: 1 512 28 28 (401408)
I0616 18:37:28.566135 12684 layer_factory.hpp:76] Creating layer relu4_3
I0616 18:37:28.566143 12684 net.cpp:110] Creating Layer relu4_3
I0616 18:37:28.566145 12684 net.cpp:477] relu4_3 <- conv4_3
I0616 18:37:28.566150 12684 net.cpp:419] relu4_3 -> conv4_3 (in-place)
I0616 18:37:28.566156 12684 net.cpp:155] Setting up relu4_3
I0616 18:37:28.566159 12684 net.cpp:163] Top shape: 1 512 28 28 (401408)
I0616 18:37:28.566162 12684 layer_factory.hpp:76] Creating layer pool4
I0616 18:37:28.566167 12684 net.cpp:110] Creating Layer pool4
I0616 18:37:28.566170 12684 net.cpp:477] pool4 <- conv4_3
I0616 18:37:28.566174 12684 net.cpp:433] pool4 -> pool4
I0616 18:37:28.566179 12684 net.cpp:155] Setting up pool4
I0616 18:37:28.566184 12684 net.cpp:163] Top shape: 1 512 14 14 (100352)
I0616 18:37:28.566185 12684 layer_factory.hpp:76] Creating layer conv5_1
I0616 18:37:28.566190 12684 net.cpp:110] Creating Layer conv5_1
I0616 18:37:28.566192 12684 net.cpp:477] conv5_1 <- pool4
I0616 18:37:28.566196 12684 net.cpp:433] conv5_1 -> conv5_1
I0616 18:37:28.569231 12684 net.cpp:155] Setting up conv5_1
I0616 18:37:28.569254 12684 net.cpp:163] Top shape: 1 512 14 14 (100352)
I0616 18:37:28.569262 12684 layer_factory.hpp:76] Creating layer relu5_1
I0616 18:37:28.569269 12684 net.cpp:110] Creating Layer relu5_1
I0616 18:37:28.569273 12684 net.cpp:477] relu5_1 <- conv5_1
I0616 18:37:28.569278 12684 net.cpp:419] relu5_1 -> conv5_1 (in-place)
I0616 18:37:28.569283 12684 net.cpp:155] Setting up relu5_1
I0616 18:37:28.569286 12684 net.cpp:163] Top shape: 1 512 14 14 (100352)
I0616 18:37:28.569288 12684 layer_factory.hpp:76] Creating layer conv5_2
I0616 18:37:28.569293 12684 net.cpp:110] Creating Layer conv5_2
I0616 18:37:28.569296 12684 net.cpp:477] conv5_2 <- conv5_1
I0616 18:37:28.569300 12684 net.cpp:433] conv5_2 -> conv5_2
I0616 18:37:28.572343 12684 net.cpp:155] Setting up conv5_2
I0616 18:37:28.572365 12684 net.cpp:163] Top shape: 1 512 14 14 (100352)
I0616 18:37:28.572373 12684 layer_factory.hpp:76] Creating layer relu5_2
I0616 18:37:28.572379 12684 net.cpp:110] Creating Layer relu5_2
I0616 18:37:28.572383 12684 net.cpp:477] relu5_2 <- conv5_2
I0616 18:37:28.572389 12684 net.cpp:419] relu5_2 -> conv5_2 (in-place)
I0616 18:37:28.572396 12684 net.cpp:155] Setting up relu5_2
I0616 18:37:28.572398 12684 net.cpp:163] Top shape: 1 512 14 14 (100352)
I0616 18:37:28.572402 12684 layer_factory.hpp:76] Creating layer conv5_3
I0616 18:37:28.572405 12684 net.cpp:110] Creating Layer conv5_3
I0616 18:37:28.572408 12684 net.cpp:477] conv5_3 <- conv5_2
I0616 18:37:28.572412 12684 net.cpp:433] conv5_3 -> conv5_3
I0616 18:37:28.575486 12684 net.cpp:155] Setting up conv5_3
I0616 18:37:28.575508 12684 net.cpp:163] Top shape: 1 512 14 14 (100352)
I0616 18:37:28.575515 12684 layer_factory.hpp:76] Creating layer relu5_3
I0616 18:37:28.575522 12684 net.cpp:110] Creating Layer relu5_3
I0616 18:37:28.575526 12684 net.cpp:477] relu5_3 <- conv5_3
I0616 18:37:28.575531 12684 net.cpp:419] relu5_3 -> conv5_3 (in-place)
I0616 18:37:28.575537 12684 net.cpp:155] Setting up relu5_3
I0616 18:37:28.575541 12684 net.cpp:163] Top shape: 1 512 14 14 (100352)
I0616 18:37:28.575542 12684 layer_factory.hpp:76] Creating layer conv5_3_relu5_3_0_split
I0616 18:37:28.575546 12684 net.cpp:110] Creating Layer conv5_3_relu5_3_0_split
I0616 18:37:28.575549 12684 net.cpp:477] conv5_3_relu5_3_0_split <- conv5_3
I0616 18:37:28.575552 12684 net.cpp:433] conv5_3_relu5_3_0_split -> conv5_3_relu5_3_0_split_0
I0616 18:37:28.575557 12684 net.cpp:433] conv5_3_relu5_3_0_split -> conv5_3_relu5_3_0_split_1
I0616 18:37:28.575567 12684 net.cpp:155] Setting up conv5_3_relu5_3_0_split
I0616 18:37:28.575572 12684 net.cpp:163] Top shape: 1 512 14 14 (100352)
I0616 18:37:28.575573 12684 net.cpp:163] Top shape: 1 512 14 14 (100352)
I0616 18:37:28.575577 12684 layer_factory.hpp:76] Creating layer rpn_conv/3x3
I0616 18:37:28.575582 12684 net.cpp:110] Creating Layer rpn_conv/3x3
I0616 18:37:28.575585 12684 net.cpp:477] rpn_conv/3x3 <- conv5_3_relu5_3_0_split_0
I0616 18:37:28.575588 12684 net.cpp:433] rpn_conv/3x3 -> rpn/output
I0616 18:37:28.627559 12684 net.cpp:155] Setting up rpn_conv/3x3
I0616 18:37:28.627591 12684 net.cpp:163] Top shape: 1 512 14 14 (100352)
I0616 18:37:28.627599 12684 layer_factory.hpp:76] Creating layer rpn_relu/3x3
I0616 18:37:28.627609 12684 net.cpp:110] Creating Layer rpn_relu/3x3
I0616 18:37:28.627611 12684 net.cpp:477] rpn_relu/3x3 <- rpn/output
I0616 18:37:28.627616 12684 net.cpp:419] rpn_relu/3x3 -> rpn/output (in-place)
I0616 18:37:28.627622 12684 net.cpp:155] Setting up rpn_relu/3x3
I0616 18:37:28.627625 12684 net.cpp:163] Top shape: 1 512 14 14 (100352)
I0616 18:37:28.627629 12684 layer_factory.hpp:76] Creating layer rpn/output_rpn_relu/3x3_0_split
I0616 18:37:28.627632 12684 net.cpp:110] Creating Layer rpn/output_rpn_relu/3x3_0_split
I0616 18:37:28.627635 12684 net.cpp:477] rpn/output_rpn_relu/3x3_0_split <- rpn/output
I0616 18:37:28.627638 12684 net.cpp:433] rpn/output_rpn_relu/3x3_0_split -> rpn/output_rpn_relu/3x3_0_split_0
I0616 18:37:28.627643 12684 net.cpp:433] rpn/output_rpn_relu/3x3_0_split -> rpn/output_rpn_relu/3x3_0_split_1
I0616 18:37:28.627648 12684 net.cpp:155] Setting up rpn/output_rpn_relu/3x3_0_split
I0616 18:37:28.627651 12684 net.cpp:163] Top shape: 1 512 14 14 (100352)
I0616 18:37:28.627653 12684 net.cpp:163] Top shape: 1 512 14 14 (100352)
I0616 18:37:28.627655 12684 layer_factory.hpp:76] Creating layer rpn_cls_score
I0616 18:37:28.627660 12684 net.cpp:110] Creating Layer rpn_cls_score
I0616 18:37:28.627662 12684 net.cpp:477] rpn_cls_score <- rpn/output_rpn_relu/3x3_0_split_0
I0616 18:37:28.627667 12684 net.cpp:433] rpn_cls_score -> rpn_cls_score
I0616 18:37:28.627931 12684 net.cpp:155] Setting up rpn_cls_score
I0616 18:37:28.627936 12684 net.cpp:163] Top shape: 1 18 14 14 (3528)
I0616 18:37:28.627955 12684 layer_factory.hpp:76] Creating layer rpn_bbox_pred
I0616 18:37:28.627959 12684 net.cpp:110] Creating Layer rpn_bbox_pred
I0616 18:37:28.627962 12684 net.cpp:477] rpn_bbox_pred <- rpn/output_rpn_relu/3x3_0_split_1
I0616 18:37:28.627965 12684 net.cpp:433] rpn_bbox_pred -> rpn_bbox_pred
I0616 18:37:28.628407 12684 net.cpp:155] Setting up rpn_bbox_pred
I0616 18:37:28.628412 12684 net.cpp:163] Top shape: 1 36 14 14 (7056)
I0616 18:37:28.628417 12684 layer_factory.hpp:76] Creating layer rpn_cls_score_reshape
I0616 18:37:28.628427 12684 net.cpp:110] Creating Layer rpn_cls_score_reshape
I0616 18:37:28.628430 12684 net.cpp:477] rpn_cls_score_reshape <- rpn_cls_score
I0616 18:37:28.628434 12684 net.cpp:433] rpn_cls_score_reshape -> rpn_cls_score_reshape
I0616 18:37:28.628440 12684 net.cpp:155] Setting up rpn_cls_score_reshape
I0616 18:37:28.628444 12684 net.cpp:163] Top shape: 1 2 126 14 (3528)
I0616 18:37:28.628446 12684 layer_factory.hpp:76] Creating layer rpn_cls_prob
I0616 18:37:28.628450 12684 net.cpp:110] Creating Layer rpn_cls_prob
I0616 18:37:28.628454 12684 net.cpp:477] rpn_cls_prob <- rpn_cls_score_reshape
I0616 18:37:28.628458 12684 net.cpp:433] rpn_cls_prob -> rpn_cls_prob
I0616 18:37:28.628481 12684 net.cpp:155] Setting up rpn_cls_prob
I0616 18:37:28.628485 12684 net.cpp:163] Top shape: 1 2 126 14 (3528)
I0616 18:37:28.628489 12684 layer_factory.hpp:76] Creating layer rpn_cls_prob_reshape
I0616 18:37:28.628492 12684 net.cpp:110] Creating Layer rpn_cls_prob_reshape
I0616 18:37:28.628494 12684 net.cpp:477] rpn_cls_prob_reshape <- rpn_cls_prob
I0616 18:37:28.628499 12684 net.cpp:433] rpn_cls_prob_reshape -> rpn_cls_prob_reshape
I0616 18:37:28.628504 12684 net.cpp:155] Setting up rpn_cls_prob_reshape
I0616 18:37:28.628506 12684 net.cpp:163] Top shape: 1 18 14 14 (3528)
I0616 18:37:28.628509 12684 layer_factory.hpp:76] Creating layer proposal
I0616 18:37:28.638039 12684 net.cpp:110] Creating Layer proposal
I0616 18:37:28.638049 12684 net.cpp:477] proposal <- rpn_cls_prob_reshape
I0616 18:37:28.638054 12684 net.cpp:477] proposal <- rpn_bbox_pred
I0616 18:37:28.638058 12684 net.cpp:477] proposal <- im_info
I0616 18:37:28.638063 12684 net.cpp:433] proposal -> rois
I0616 18:37:28.638475 12684 net.cpp:155] Setting up proposal
I0616 18:37:28.638484 12684 net.cpp:163] Top shape: 1 5 (5)
I0616 18:37:28.638489 12684 layer_factory.hpp:76] Creating layer roi_pool5
I0616 18:37:28.638494 12684 net.cpp:110] Creating Layer roi_pool5
I0616 18:37:28.638496 12684 net.cpp:477] roi_pool5 <- conv5_3_relu5_3_0_split_1
I0616 18:37:28.638500 12684 net.cpp:477] roi_pool5 <- rois
I0616 18:37:28.638504 12684 net.cpp:433] roi_pool5 -> pool5
I0616 18:37:28.638509 12684 roi_pooling_layer.cpp:30] Spatial scale: 0.0625
I0616 18:37:28.638520 12684 net.cpp:155] Setting up roi_pool5
I0616 18:37:28.638523 12684 net.cpp:163] Top shape: 1 512 7 7 (25088)
I0616 18:37:28.638526 12684 layer_factory.hpp:76] Creating layer fc6
I0616 18:37:28.638530 12684 net.cpp:110] Creating Layer fc6
I0616 18:37:28.638533 12684 net.cpp:477] fc6 <- pool5
I0616 18:37:28.638537 12684 net.cpp:433] fc6 -> fc6
I0616 18:37:28.765775 12684 net.cpp:155] Setting up fc6
I0616 18:37:28.765812 12684 net.cpp:163] Top shape: 1 4096 (4096)
I0616 18:37:28.765827 12684 layer_factory.hpp:76] Creating layer relu6
I0616 18:37:28.765836 12684 net.cpp:110] Creating Layer relu6
I0616 18:37:28.765838 12684 net.cpp:477] relu6 <- fc6
I0616 18:37:28.765847 12684 net.cpp:419] relu6 -> fc6 (in-place)
I0616 18:37:28.765854 12684 net.cpp:155] Setting up relu6
I0616 18:37:28.765858 12684 net.cpp:163] Top shape: 1 4096 (4096)
I0616 18:37:28.765861 12684 layer_factory.hpp:76] Creating layer drop6
I0616 18:37:28.765864 12684 net.cpp:110] Creating Layer drop6
I0616 18:37:28.765867 12684 net.cpp:477] drop6 <- fc6
I0616 18:37:28.765871 12684 net.cpp:419] drop6 -> fc6 (in-place)
I0616 18:37:28.765874 12684 net.cpp:155] Setting up drop6
I0616 18:37:28.765877 12684 net.cpp:163] Top shape: 1 4096 (4096)
I0616 18:37:28.765879 12684 layer_factory.hpp:76] Creating layer fc7
I0616 18:37:28.765884 12684 net.cpp:110] Creating Layer fc7
I0616 18:37:28.765887 12684 net.cpp:477] fc7 <- fc6
I0616 18:37:28.765890 12684 net.cpp:433] fc7 -> fc7
I0616 18:37:28.786797 12684 net.cpp:155] Setting up fc7
I0616 18:37:28.786834 12684 net.cpp:163] Top shape: 1 4096 (4096)
I0616 18:37:28.786842 12684 layer_factory.hpp:76] Creating layer relu7
I0616 18:37:28.786851 12684 net.cpp:110] Creating Layer relu7
I0616 18:37:28.786854 12684 net.cpp:477] relu7 <- fc7
I0616 18:37:28.786859 12684 net.cpp:419] relu7 -> fc7 (in-place)
I0616 18:37:28.786869 12684 net.cpp:155] Setting up relu7
I0616 18:37:28.786872 12684 net.cpp:163] Top shape: 1 4096 (4096)
I0616 18:37:28.786875 12684 layer_factory.hpp:76] Creating layer drop7
I0616 18:37:28.786880 12684 net.cpp:110] Creating Layer drop7
I0616 18:37:28.786881 12684 net.cpp:477] drop7 <- fc7
I0616 18:37:28.786885 12684 net.cpp:419] drop7 -> fc7 (in-place)
I0616 18:37:28.786890 12684 net.cpp:155] Setting up drop7
I0616 18:37:28.786893 12684 net.cpp:163] Top shape: 1 4096 (4096)
I0616 18:37:28.786895 12684 layer_factory.hpp:76] Creating layer fc7_drop7_0_split
I0616 18:37:28.786900 12684 net.cpp:110] Creating Layer fc7_drop7_0_split
I0616 18:37:28.786901 12684 net.cpp:477] fc7_drop7_0_split <- fc7
I0616 18:37:28.786905 12684 net.cpp:433] fc7_drop7_0_split -> fc7_drop7_0_split_0
I0616 18:37:28.786908 12684 net.cpp:433] fc7_drop7_0_split -> fc7_drop7_0_split_1
I0616 18:37:28.786913 12684 net.cpp:155] Setting up fc7_drop7_0_split
I0616 18:37:28.786916 12684 net.cpp:163] Top shape: 1 4096 (4096)
I0616 18:37:28.786919 12684 net.cpp:163] Top shape: 1 4096 (4096)
I0616 18:37:28.786921 12684 layer_factory.hpp:76] Creating layer cls_score
I0616 18:37:28.786927 12684 net.cpp:110] Creating Layer cls_score
I0616 18:37:28.786931 12684 net.cpp:477] cls_score <- fc7_drop7_0_split_0
I0616 18:37:28.786934 12684 net.cpp:433] cls_score -> cls_score
I0616 18:37:28.805207 12684 net.cpp:155] Setting up cls_score
I0616 18:37:28.805217 12684 net.cpp:163] Top shape: 1 201 (201)
I0616 18:37:28.805222 12684 layer_factory.hpp:76] Creating layer bbox_pred
I0616 18:37:28.805228 12684 net.cpp:110] Creating Layer bbox_pred
I0616 18:37:28.805232 12684 net.cpp:477] bbox_pred <- fc7_drop7_0_split_1
I0616 18:37:28.805234 12684 net.cpp:433] bbox_pred -> bbox_pred
I0616 18:37:28.877568 12684 net.cpp:155] Setting up bbox_pred
I0616 18:37:28.877589 12684 net.cpp:163] Top shape: 1 804 (804)
I0616 18:37:28.877598 12684 layer_factory.hpp:76] Creating layer cls_prob
I0616 18:37:28.877605 12684 net.cpp:110] Creating Layer cls_prob
I0616 18:37:28.877609 12684 net.cpp:477] cls_prob <- cls_score
I0616 18:37:28.877614 12684 net.cpp:433] cls_prob -> cls_prob
I0616 18:37:28.877640 12684 net.cpp:155] Setting up cls_prob
I0616 18:37:28.877645 12684 net.cpp:163] Top shape: 1 201 (201)
I0616 18:37:28.877647 12684 net.cpp:240] cls_prob does not need backward computation.
I0616 18:37:28.877650 12684 net.cpp:240] bbox_pred does not need backward computation.
I0616 18:37:28.877652 12684 net.cpp:240] cls_score does not need backward computation.
I0616 18:37:28.877655 12684 net.cpp:240] fc7_drop7_0_split does not need backward computation.
I0616 18:37:28.877658 12684 net.cpp:240] drop7 does not need backward computation.
…
